model/keypoint_classifier/keypoint_classifier.tflite (tflite, 6512 bytes, 6 tensors)

arith.constant f4 [3, 10]
00000000: cf1f 093f f92d 183f ce19 043f a8a0 293e
00000010: f754 b0be 50b2 38be 47cb bbbe e017 85be
00000020: b27b 1f3f eaa1 e2be fc10 4bbf 9c3c edbe
00000030: e5e3 3d3f fe8c d8be e9a3 263f 991f 69bf
00000040: dc4c 9f3e f0e0 3b3f 0294 1c3f 23db c53e
00000050: 0a4d 853e a3f2 16be 2b63 0e3f 5a32 4f3f
00000060: cf6e b83e b88f 6ebd 5f53 003f c663 54bf
00000070: 4e74 82be aa1d fd3e
0.5356416 0.5944515 0.51601875 0.16565192 -0.34439823 -0.18036771 -0.36678526 -0.25994778
0.6229812 -0.44264156 -0.7932279 -0.46335304 0.74175864 -0.42295069 0.6509386 -0.9106384
0.31113327 0.733901 0.6116334 0.3864375 0.2603534 -0.14740996 0.5562007 0.80936205
0.3602204 -0.05824253 0.50127214 -0.8296474 -0.25479358 0.49436694

arith.constant1 f4 [10, 20]
00000000: 88af c83e 7d89 803e 7dac bb3e 13f8 fe3e
00000010: 719e 583e 8a47 9cbd 3dfc a23e 28f9 2bbe
00000020: af5a 27be b030 023e 7bfb 133e 7097 013f
00000030: 0ba2 adbd 2136 8a3d 1a86 86be f857 a13c
00000040: 6772 ed3e b65b a0be c05b 5cbd 46aa 7bbe
00000050: 4665 c43e b74d 3b3e bc17 ddbe a5bd 0cbe
00000060: b6bd 043e 65ef 17bf da9a cabd b7f1 e23e
00000070: 6735 1dbf c28f 76be 8aa5 1f3d c151 3f3e
00000080: 3f5e 92be c7a2 783e efc8 b2be 8143 463d
00000090: a0f9 933e a264 29bf dd1a 913e cd55 cbbe
000000a0: 8460 ce3e b284 543e 0d40 f23d 519a 753e
000000b0: 8e5a c0be 6981 79be 6995 7cbe 0cb3 f2be
000000c0: dc35 0a3e f9af fb3e 754a 673d efa8 96be
000000d0: 5e5c 0abf b4a3 ea3d 94f2 793e b269 d73d
000000e0: f6d4 07bf 68b7 b9be a454 653e 3073 e9be
000000f0: 823b 16be 050f a2bd aabf 973e 2d9e f43e
00000100: ae79 cd3e e2c9 5b3e 8a70 103f 5f9d 803e
00000110: f2a8 023e 9531 40be 1903 bfbe 1b8a 96be
00000120: 97cc c33e c836 71be 40c1 4b3e 2816 debe
00000130: d946 d23e 21db 393e 6333 28be 2eed 763e
00000140: beaf 853e 8c7a 04bc f554 063f a6f9 d4be
00000150: 1f46 ccbd 17b4 f9bd 7332 a43e 6209 b13d
00000160: a883 923e 892e 083f 21d8 8abd b422 63be
00000170: 676d 1b3e 04e3 573e 76e8 40be 57f6 603b
00000180: 4a03 503e afd4 853e 2989 89bd 92f8 6cbd
00000190: aa08 9fbd d3a1 26be a5de 0b3f f979 86bd
000001a0: 9beb da3e e61c 0dbf 8efe 9f3e d432 353f
000001b0: 6cd3 023d 5f0b f0be 5796 d53d a915 973e
000001c0: f492 553f 405d 033f 5580 9ebe dde9 823e
000001d0: a381 a43e fb87 7cbe 721e 39be 7a66 273d
000001e0: deb2 003e 4bd7 fdbd 2758 0a3f 66da 5a3e
000001f0: 6f39 8e3e 72e1 eebd 10c3 253e f903 9dbc
00000200: fb69 ed3e 39b1 d73e 342c acbd feb7 36bd
00000210: 9104 693e 9e62 24be 8aaf 96be ed32 bebd
00000220: cc79 453e a30c a83e f390 1f3d 4dd2 053f
00000230: 724e df3e 6259 543e 54e5 b0be 8423 91be
00000240: 3eeb b4be 4250 033f bee9 98be c794 a1bd
00000250: c735 9a3d 8980 cc3e 6900 913e 8448 9b3e
00000260: dbeb ef3c b7d0 c5bd 1016 953e 83ff c03d
00000270: da89 2fbd 51c0 643e 48e8 243e 0024 0cbf
00000280: 18a9 063f b030 243e f5a3 b0be 3d1e 52be
00000290: 247a be3e c87f e13e 3e6e 91be 5692 593d
000002a0: 117e ca3e cfdb e73e 3b99 523e b68a 763e
000002b0: 919b 03bf 02e0 613e cb17 353e 1e4e a43e
000002c0: 9544 683e 08db 79be 647a 403f 2b15 d8be
000002d0: e4af cabe bda4 063d 956d 1ebe 8e52 d13e
000002e0: c75c aebe 7b4b c33e 25f5 d2be 86e5 cebe
000002f0: 4abf 573e 9544 1abe ef2e c5bd 36fe 8f3e
00000300: 193f fb3e 1c3a 8b3e 2d54 48bd 909f f1bd
00000310: 9e93 e2bd 49c2 b9be 5d66 b7be 692c 003f
0.3919642 0.25104895 0.36655036 0.4979864 0.2115419 -0.076308325 0.31833068 -0.16794264
-0.16343187 0.12713885 0.14451401 0.506217 -0.08478173 0.067486055 -0.26274186 0.019695267
0.46376345 -0.3131997 -0.053798437 -0.24576673 0.38358516 0.18291365 -0.4318217 -0.13744219
0.12962994 -0.5934966 -0.09892817 0.4432504 -0.6140961 -0.24078277 0.03897623 0.1868353
-0.2858753 0.24280845 -0.34918925 0.04840422 0.28901386 -0.6616918 0.28340808 -0.39713898
0.4030801 0.20753744 0.11828623 0.23984648 -0.37569088 -0.24365772 -0.2466637 -0.47402227
0.13497108 0.49157694 0.056467492 -0.2942576 -0.5404719 0.11457005 0.24408942 0.10518207
-0.5305933 -0.3627274 0.22395569 -0.45595694 -0.14671138 -0.07913021 0.29638416 0.4777693
0.40131897 0.21463731 0.5642172 0.25120065 0.1275976 -0.18768914 -0.3730705 -0.2940224
0.38242027 -0.23556054 0.19897938 -0.4337628 0.41069677 0.18149997 -0.16425852 0.24113914
0.26110643 -0.008085858 0.52473384 -0.41596717 -0.09974312 -0.121925525 0.3206974 0.08644368
0.2861607 0.53196007 -0.067795046 -0.22181207 0.15178452 0.21082693 -0.18838677 0.0034326517
0.20313755 0.26138827 -0.06715614 -0.057854243 -0.077653244 -0.16272669 0.54636604 -0.06566233
0.42757878 -0.5512222 0.31248897 0.7078068 0.03193991 -0.46883675 0.10429066 0.29508713
0.8342736 0.51314163 -0.30957285 0.2556905 0.32130155 -0.24661247 -0.1807802 0.040869214
0.12568232 -0.123945795 0.5404076 0.21372375 0.27778193 -0.11664094 0.16187692 -0.019166933
0.4636992 0.42127398 -0.084068686 -0.044609062 0.22755648 -0.16053244 -0.294308 -0.09287057
0.19284743 0.3282214 0.038956594 0.5227402 0.43614537 0.20737222 -0.34549963 -0.2834741
-0.35335726 0.5129434 -0.2986583 -0.07889705 0.075297885 0.39941815 0.28320625 0.30328763
0.02928727 -0.0965895 0.29118395 0.09423735 -0.042856075 0.22338988 0.16104233 -0.5474243
0.52601767 0.16034198 -0.3450009 -0.20519347 0.3720256 0.44042802 -0.2840442 0.053118072
0.39549306 0.45284888 0.20566265 0.24076352 -0.5140925 0.22058108 0.17684858 0.3209085
0.22682412 -0.2439996 0.75186753 -0.4220365 -0.3958732 0.03287195 -0.1547149 0.40883297
-0.34055158 0.38143525 -0.41202655 -0.40409487 0.21069065 -0.15065224 -0.096280925 0.28123635
0.49071577 0.2719277 -0.0489084 -0.11798012 -0.11063312 -0.3628104 -0.35820284 0.50067765

arith.constant2 f4 [3]
00000000: c9c8 c23d 08bb e1bd 50c2 b0bd
0.09510953 -0.110220015 -0.08630812

sequential_1/dense_1_2/BiasAdd/ReadVariableOp f4 [10]
00000000: 4d9d 103e 8600 813e 8f94 40bd e59e de3d
00000010: f21e f9bc 996a 8f3e 68ae 64bd 904f 1e3e
00000020: b08c 643e aa51 48bd
0.14122505 0.25195712 -0.047016677 0.108701505 -0.030410264 0.28011015 -0.05583039 0.15460038
0.22319293 -0.048906006

sequential_1/dense_1/BiasAdd/ReadVariableOp f4 [20]
00000000: 36dd b83d 570d 27bb 1c03 6ebb 6860 b4bd
00000010: 84a3 773d 6163 133e 4cc9 0ebd 052f 7dbb
00000020: 739c b23d 5d34 653d ca64 c73d ddf0 4bbd
00000030: 2f6c f4bc 3703 37bd 5b46 cfbc 0d11 8d3d
00000040: 2604 153e 9068 cebc 14a7 803e 796a cfbd
0.09026568 -0.002549013 -0.0036317771 -0.088074505 0.060458675 0.14393379 -0.03485994 -0.0038632762
0.087212466 0.05595814 0.09736021 -0.049790252 -0.029836742 -0.0446808 -0.025302103 0.06888018
0.14552364 -0.025196344 0.2512747 -0.1012773

sequential_1/dense_1/MatMul f4 [20, 42]
00000000: 701a b73d b004 9c3e 4d20 67be cbb2 af3d
00000010: a747 75bd 98ca 63be 686a dfbe 71c1 90be
00000020: 67b3 2d3d 3921 9fbe 14ad e9be 0c36 56be
00000030: 8a9f 22be a8e5 cd3d 1a02 99be 0516 bcbe
00000040: 44cb 3ebc fad2 87be dfdd 4fbe ac34 c0be
00000050: 33ec 26bd bd4e 2cbd 8fca 36be 75f9 153e
00000060: 636b 983d aacc a6bd f647 90be d707 b5be
00000070: 33b4 273e 327d a93c 48a7 abbe 49e6 c03c
00000080: 07b8 dbbd 21ec eebd 3c08 bbbc 89a5 44be
00000090: 6a03 64be 0573 62be 23d3 b3bd 8974 453d
000000a0: ba2c 2c3e fd73 623e 86d5 95be de43 08be
000000b0: e916 e9be 05c7 bd3d dc6b 12be 8bba e03d
000000c0: 7d3e e7bc 6518 0c3d 0a25 b2bd b813 23be
000000d0: 1486 8cbe 1ea8 2f3d 9a7f 41be fc6c 2bbe
000000e0: 8bbf d0be aed4 a3be 5faf 36bd bbb2 cabe
000000f0: 869e 9c3d 5a94 d2be 67d0 11be 1008 bbbe
00000100: 1667 18be 807a 31be bcb3 e8bc 8b3f c63d
00000110: cb6e f9bd 4615 54be 5ad3 563a ba78 a93b
00000120: 314f 2ebe 9227 a7be 8fde 43ba e814 9cbe
00000130: 9542 ac3c 0be5 80be 14e5 29be f2a3 77be
00000140: b7e5 49bc 64f1 493e d6c1 c83d 8097 05be
00000150: 7b4a 93be 405f 2f3d a3bb 653f f8d1 27be
00000160: a230 393f 1616 d6bb 3e15 603e cce0 5a3e
00000170: 929d 013f 9dca 593e e5f8 233d 5d75 0f3e
00000180: 339e aa3e 600d 503e b213 c73e fad8 883e
00000190: 8baf 043f bb01 743e b547 9f3e 3b10 ddbd
000001a0: c737 6bbd b106 873e eb87 5e3e 9038 ab3e
000001b0: adc0 d13d 81b8 8d3e 9ab1 1d3d 60c5 963e
000001c0: f455 053e e1f3 0c3e 2184 0ebe dad5 3e3e
000001d0: 810f 4f3e cf6c 29be 78c6 1c3e 7959 a5bd
000001e0: 2f88 343d 32c8 03bf 61ee 39bc da9b 2dbe
000001f0: f330 393c e8ca bebe 007a 093e 204e 6dbe
00000200: f8ba c03e c693 0cbe a09d f7bd 06f0 9e3e
00000210: adf1 9c3e dc5a 02be 82dc 113e a318 d73d
00000220: ad8f 2cbe dc36 19be 92e4 c53e 856f 523e
00000230: 20ad d43d ee01 08be 27e3 413e cfd2 333e
00000240: 3808 cb3e 8cd7 053e 1190 3d3e c82f 59bd
00000250: 294e 623e e778 09be 35be 2a3e c84a eebd
00000260: 6d76 303d c1f9 8c3e 8982 ad3d 7c69 45bc
00000270: 2aa6 b33c 2f89 76bd 97a3 543e a9af c03e
00000280: aceb e03d d0b5 a2bd fba4 283e f340 b43d
00000290: 9450 973b 37c1 63be 2b9b 613d 3af3 72bc
000002a0: 60d0 383e e8df 0bbe c9a1 9e3d 9193 07be
000002b0: 2450 ccbe 9c5e e1bd 2226 b3be f8c2 2b3e
000002c0: 910e 073e 441d 95be e08e aa3d 9320 46be
000002d0: 5c8e 4dbe bdd5 babe 9784 a73e 1f21 90be
000002e0: 827d 1abe 4181 283e 80b5 4d3e c602 f13d
000002f0: a066 153d eb85 9fbe 7ada 7c3d 69a1 4dbe
00000300: de87 af3e 5ed7 413d b3e7 493e 9093 82bd
00000310: e23d 06be 81a5 5fbe 1d2a c43e 2330 4dbe
00000320: c383 d23e 8a5c d8bd 85d5 483e 3ab5 0c3d
00000330: 5c3d 5e3e 959b 7dbe e7bf a63e 55ba cbbc
00000340: ea37 593e 569b a03c 5c2b 64be 88f0 513e
00000350: ed0c 7a3e 93fd a03d 84fb e0bd 18b1 c1be
00000360: 2ac5 8f3d f2c1 60be 77d8 8bbe 1d75 983d
00000370: 6806 a23d 8a46 9ebe 3c92 5ebe c303 b3bd
00000380: b0dd 07be b0bd 003d d357 b5be 3815 5e3d
00000390: c88b e6be c5ab 69be 54fd 02bd a34b 4f3d
000003a0: 257a ab3d fe1b 193e 8e9b f83d 076a 5c3d
000003b0: a0f0 acbe 67e2 a33e 17e3 b83d 49d0 b8bc
000003c0: 9787 5fbe a534 af3d 9e4a cdbe fc87 3d3e
000003d0: e848 853d 6d26 ee3e 68d3 e9bd 653e df3e
000003e0: a7ce 16be 7a1d a93e 469b c0be 3647 933e
000003f0: 349d 4d3e 4f69 78be 0e50 d23e a5da 843e
0.089405894 0.30472326 -0.22570916 0.08579024 -0.059882786 -0.22245252 -0.4363587 -0.28272584
0.04240742 -0.31080034 -0.4563986 -0.20919055 -0.15881172 0.10053569 -0.29884416 -0.3673555
-0.011645142 -0.2652815 -0.20299481 -0.37540185 -0.0407526 -0.04206728 -0.17850707 0.14645942
0.074423574 -0.08144505 -0.28179902 -0.35357544 0.16377334 0.02068958 -0.33526063 0.023547309
-0.1072846 -0.11666132 -0.022831075 -0.19203772 -0.22266927 -0.22114189 -0.087805055 0.04820684
0.16813937 0.22114559 -0.29264468 -0.1330714 -0.45525292 0.092664756 -0.14298958 0.1097308
-0.028228039 0.034202952 -0.08698471 -0.15925491 -0.27446043 0.04288494 -0.18896332 -0.16740793
-0.40771136 -0.319982 -0.04460084 -0.39589486 0.076474234 -0.41128808 -0.14239655 -0.3652959
-0.14883074 -0.17331886 -0.028406017 0.096800886 -0.12179335 -0.2071124 0.0008194946 0.0051718624
-0.17022397 -0.32647377 -0.00074718235 -0.304847 0.021027843 -0.25174746 -0.16591293 -0.24183634
-0.012322835 0.1972099 0.09802596 -0.13046074 -0.28767762 0.042815447 0.89739436 -0.1638869
0.7233983 -0.0065333946 0.21883103 0.21374816 0.5063106 0.21268697 0.040032286 0.14009614
0.3332382 0.20317602 0.38882214 0.2672804 0.5183036 0.23828785 0.31109396 -0.10794111
-0.05742624 0.26372293 0.21731536 0.3344159 0.10241828 0.27679828 0.038499452 0.2944746
0.1302107 0.13764907 -0.1391759 0.18636265 0.20220758 -0.16545413 0.15310085 -0.08073706
0.044075187 -0.5147735 -0.011348338 -0.16953984 0.011303174 -0.3726418 0.13425446 -0.23174334
0.37642646 -0.13728246 -0.120906115 0.31042498 0.30653134 -0.12729973 0.14244273 0.10502746
-0.16851683 -0.14962333 0.38650948 0.20550354 0.103845835 -0.13281986 0.18934308 0.17560886
0.39654708 0.13070506 0.18511988 -0.053024083 0.22100128 -0.13425027 0.1667412 -0.11635357
0.04308169 0.27534297 0.08472163 -0.012049075 0.02192982 -0.060189422 0.2076553 0.37634018
0.10982451 -0.07944834 0.16469185 0.088014506 0.00461776 -0.22241674 0.05507962 -0.014828498
0.18048239 -0.13659632 0.07745702 -0.13239886 -0.39904892 -0.110043734 -0.3499003 0.16773593
0.1318915 -0.2912389 0.083280325 -0.19348364 -0.20073837 -0.36491194 0.32718346 -0.2815027
-0.1508694 0.16455556 0.20088768 0.11768107 0.036474824 -0.3115686 0.061731793 -0.20081104
0.34283346 0.04732453 0.19717292 -0.063758016 -0.13109544 -0.21840478 0.3831338 -0.20037894
0.4111615 -0.105645254 0.19612701 0.03435252 0.21703094 -0.24766381 0.32568285 -0.024869123
0.21212736 0.01960532 -0.22282165 0.20501912 0.24418993 0.078608654 -0.10985473 -0.37830424
0.07020028 -0.21948984 -0.27313587 0.074442126 0.07911378 -0.30913192 -0.21735471 -0.08740952
-0.13268161 0.0314309 -0.35418567 0.054219455 -0.4502852 -0.22819431 -0.031979874 0.050609242
0.083729066 0.14952084 0.12139045 0.053812053 -0.33777332 0.3200867 0.09027689 -0.022560256
-0.21829067 0.08554963 -0.4009599 0.18508905 0.065080464 0.46513692 -0.11417276 0.4360229
-0.14727269 0.330303 -0.37618464 0.28765267 0.200795 -0.24258922 0.41076702 0.25948063
