model/keypoint_classifier/keypoint_classifier.tflite (tflite, 6556 bytes, 6 tensors)

arith.constant f4 [4, 10]
000000 0f d7 04 3e c9 89 58 be ae 10 0c be 02 41 03 3f
       0.12972663 -0.21146311 -0.13678238 0.5127107
000010 9f 01 9b be f0 08 43 3e c7 81 41 bf db 0d 8c 3e
       -0.30274674 0.19046378 -0.7558865 0.2735432
000020 1d 6e 52 3f c2 c0 6e 3d dc 32 2c 3f cc 73 9d 3e
       0.8219927 0.058289297 0.67265105 0.30752409
000030 3a 84 37 3e 22 c7 c9 3e 73 41 a0 3e 00 d6 02 3f
       0.17921534 0.3940974 0.31299934 0.5110779
000040 03 c0 ef 3d 5d 12 97 be 35 76 fb be b5 4b 21 be
       0.11706545 -0.29506198 -0.49113622 -0.15751536
000050 20 b5 ba be f9 f4 2a be 73 c0 18 bc 5e 69 6f 3d
       -0.36466312 -0.16695012 -0.009323227 0.058450095
000060 2a 1d b4 bd 13 92 85 bd 45 29 09 3f 39 a4 5a 3e
       -0.08794625 -0.06522002 0.535786 0.21351708
000070 d1 c4 84 be d8 0f 43 3e 06 78 5e 3d 78 35 f3 3c
       -0.2593141 0.19049013 0.054313682 0.029688582
000080 8a b0 33 3e d9 2c ee be 19 bf cc bd 15 76 c7 be
       0.17547813 -0.4651859 -0.099973865 -0.38957277
000090 4c f1 01 bf 6d fd a4 3d 02 fe ed bd cd e3 1e be
       -0.50758815 0.0805615 -0.11620714 -0.15516587

arith.constant1 f4 [10, 20]
000000 7c fb 8a be 23 cd 71 3e 8e 71 4a 3e dc 99 4c bd
       -0.27144992 0.2361341 0.1976988 -0.04995142
000010 db 2b 83 be 44 46 b4 be ea 90 83 be 01 e1 fb 3e
       -0.25619397 -0.35209858 -0.25696498 0.49195102
000020 7f de cc 3e 95 bf fa 3e 1c cd 11 3f 74 ce 64 bb
       0.400135 0.4897429 0.569536 -0.0034913095
000030 34 17 18 3f 17 13 8e bb 07 87 3d 3d 83 6a 26 bd
       0.59410405 -0.004335772 0.04627135 -0.04062892
000040 43 db 66 be 16 68 d3 be 8f 77 28 bc cb 72 a4 be
       -0.22544579 -0.4129035 -0.010282411 -0.3211883
000050 66 52 65 be 45 17 cf bd 7a 73 85 3e 03 c0 f2 be
       -0.22394714 -0.1011186 0.26064664 -0.47412118
000060 67 5f 16 3e 9f 0e a9 be 8f d9 92 3e e6 60 20 3e
       0.1468483 -0.33018968 0.2868161 0.15661964
000070 48 4f 44 3e 75 61 0a be 36 36 a7 bd c1 21 de bd
       0.19170868 -0.1351374 -0.08164637 -0.10846282
000080 a0 01 41 be 9f ce f9 3e 64 60 f1 be 6a 6a cf 3e
       -0.18848276 0.48790452 -0.47143853 0.40510875
000090 7b d3 c8 be 64 a9 60 be 79 ac cc bc 69 cd 0d be
       -0.39223847 -0.21939617 -0.024984585 -0.13847889
0000a0 2c c6 52 be 1a 4c 75 bd 8e b7 5e 3e f5 bc 7c 3b
       -0.20583409 -0.05988703 0.21749708 0.0038564776
0000b0 79 6b dd bc 4a 57 09 3d 90 cf ce 3e 2f d2 b0 3e
       -0.027028786 0.03353051 0.40392733 0.34535357
0000c0 6c 83 8f 3d e4 c7 fb 3c 81 a9 01 3d 77 ea d7 3d
       0.070074886 0.030734964 0.031655792 0.105427675
0000d0 12 b7 78 3e f9 58 79 3e 97 bd 21 be 8d 03 6d 3e
       0.24288586 0.24350347 -0.15794979 0.23145886
0000e0 8f c8 f9 be 55 3c 69 3e 79 23 f8 3c d9 1e 68 be
       -0.48785827 0.22776921 0.030290352 -0.22668017
0000f0 f9 e7 15 3f 91 0f 94 3e 52 ed ba 3e 2b 7f fe 3d
       0.5855709 0.28918126 0.36509186 0.12426599
000100 3f 41 6d be a9 e9 5c 3e bf 29 c4 be 68 30 7c 3d
       -0.2316942 0.2157351 -0.383131 0.0615696
000110 4a dd 3e be b1 ca b1 3e ef 4c 62 bd 03 7d 7b 3e
       -0.18639103 0.34724954 -0.05524915 0.24559407
000120 28 5f e5 3c fd b7 ac 3e 24 1a 56 be f2 90 97 bc
       0.027999476 0.33734122 -0.2090841 -0.018501732
000130 88 41 b2 be cd ce 9f be 25 89 0f 3f 9f c6 86 be
       -0.3481562 -0.31212464 0.5606864 -0.2632341
000140 07 70 04 3e 37 cc f3 3d ed 28 b0 3d 1a d5 60 bd
       0.1293336 0.11904185 0.08601556 -0.05489073
000150 fd c9 49 3d cc d8 c0 be b7 c0 c9 bd f8 ba 9c 3e
       0.049264897 -0.37665403 -0.098512106 0.30611396
000160 f3 f4 bd 3e 75 85 ca bd 2c 30 b1 3e 53 bb 8f bd
       0.37100944 -0.09888736 0.34607065 -0.07018151
000170 0c 2d 23 bc 91 ac f3 3e 06 36 e0 be 5e fc ec 3c
       -0.0099594705 0.47592595 -0.43791217 0.028928932
000180 b1 da 1a bd 32 df 28 3e 36 00 b7 3c 0c d0 cd 3d
       -0.037806217 0.16491392 0.022338968 0.100494474
000190 52 d1 03 3f a8 09 53 3e db ca 29 be 1f 22 f2 ba
       0.5149127 0.20609152 -0.1658129 -0.0018473304
0001a0 db 53 e6 3c fc 6b 15 3e 42 cf 80 be 24 37 17 3e
       0.028116157 0.14591974 -0.25158125 0.14767128
0001b0 32 da 40 3e 0b 8d bd 3e 4a 35 05 3e b5 fe 66 be
       0.18833235 0.3702167 0.1300861 -0.225581
0001c0 0b ce a5 3e 25 28 0b 3e 05 b1 d4 3d ad 56 8c 3e
       0.3238376 0.13589533 0.10385326 0.27409878
0001d0 5b 42 bc bd c4 57 b1 be 00 e8 b0 3e 3a b3 eb 3d
       -0.09192344 -0.34637272 0.34552002 0.11508794
0001e0 66 c0 da be 17 5e c1 be 0e 9c f8 be d9 40 08 3f
       -0.42724913 -0.37767097 -0.4855656 0.5322395
0001f0 3a d2 07 3d 9b b7 9f 3e 79 f7 82 be ad 7d 6f be
       0.033159472 0.31194767 -0.25579432 -0.23387785
000200 b0 f9 26 3e e6 ce aa be 38 7c 6f be b4 8a 46 3e
       0.16306186 -0.33360976 -0.2338723 0.19388849
000210 a8 ea 04 bc bc 65 d1 be 7f 94 28 3e 11 b2 e8 be
       -0.008112587 -0.4089793 0.16462897 -0.45448354
000220 2a 2b 9c 3e 7a ce f8 3e e9 2b d1 be 5a b3 27 3f
       0.30501682 0.4859503 -0.40853813 0.65508044
000230 a6 15 0c bd 54 58 1a bf d7 56 a4 be f5 f4 32 3d
       -0.034200333 -0.6029103 -0.32097504 0.04369064
000240 76 6f 1d 3b 12 1e ff 3e e9 eb 29 3e d8 48 a0 be
       0.0024022735 0.4982763 0.16593899 -0.31305575
000250 c4 6f 8d be 84 d9 ca 3e 83 4a 3b be 06 11 e4 3e
       -0.27624333 0.39619076 -0.18290143 0.44544238
000260 32 84 bd 3e 53 56 a2 bd 2f 18 9f 3e 21 ce 95 be
       0.3701492 -0.07926621 0.31073138 -0.29258826
000270 ba 11 57 3e 22 1c 1a be 09 8f e8 3d ea 6b 05 3d
       0.21002856 -0.15049794 0.11355407 0.032573618
000280 d1 ec 0a 3d 18 7f db be ff 23 a5 3e 95 24 f0 bd
       0.033917252 -0.42870402 0.32254025 -0.117257275
000290 49 88 27 3f ce 52 c9 3e 90 67 07 be 42 40 04 bf
       0.6544233 0.39320987 -0.132231 -0.5166055
0002a0 8b 44 b1 be 99 8c 13 3e 14 07 a8 bd 24 3e 23 3e
       -0.34622607 0.14409102 -0.08204475 0.15941674
0002b0 61 83 f2 3d 18 07 0b bf 86 39 ef be c2 51 8f be
       0.11841465 -0.543077 -0.46723574 -0.27992064
0002c0 07 00 3d be cb 84 94 3e e2 b8 44 3e 90 92 58 3e
       -0.18457042 0.29007563 0.19211152 0.21149659
0002d0 29 1d 09 bd 0f 84 02 bf 8e 1c 52 bd 12 28 3a be
       -0.033475075 -0.50982755 -0.051296763 -0.18179348
0002e0 cf 6a 88 3e 83 c0 11 3f 39 fa a2 be 27 8d cc be
       0.26643988 0.56934375 -0.3183153 -0.3995144
0002f0 d6 fc b5 bd a5 7b c9 3e 78 e1 e7 be 66 d9 d2 3e
       -0.08886115 0.39352146 -0.45289207 0.41181487
000300 46 c0 50 bd bc ee fd be 1b 88 9e 3e b5 49 34 3e
       -0.050964616 -0.49596202 0.30963215 0.17606242
000310 68 cf 79 3e 17 4e 33 3f 57 e3 27 bd 60 3b c4 3e
       0.24395525 0.7004103 -0.040988293 0.3832655

arith.constant2 f4 [4]
000000 a1 c2 83 3d 98 a8 09 be d3 37 20 3e 49 a8 c0 bd
       0.06433607 -0.1344322 0.15646295 -0.09407098

sequential_1/dense_1_2/BiasAdd/ReadVariableOp f4 [10]
000000 f7 36 c0 3d 7a 98 09 3e eb cb 98 bd 86 de bf 3d
       0.09385484 0.13437071 -0.07460769 0.09368615
000010 2f 53 a0 bd 7a 58 ce bc 7a 77 0f 3e 62 da 4b 3e
       -0.07828366 -0.025188673 0.1401042 0.19907525
000020 7e d3 18 3e 55 fc 49 3e
       0.14924428 0.19725163

sequential_1/dense_1/BiasAdd/ReadVariableOp f4 [20]
000000 0b 0c 9f 3d d5 d9 4e 3d b6 1a d8 3d 29 60 65 3b
       0.07765969 0.05050071 0.1055197 0.0034999943
000010 29 66 9f 3b 7e 03 06 3e a1 11 9f bd c6 90 f4 3d
       0.0048644734 0.1308727 -0.07767034 0.11941676
000020 f0 53 fa 3d 47 5e b7 3d 1a e5 e6 3d 74 3b 00 3e
       0.12223041 0.08953529 0.112741664 0.1252268
000030 38 4c af 3d 5b 56 01 3e df 48 af bc df 93 c6 bc
       0.085594594 0.12630598 -0.021397052 -0.024240432
000040 ff ae 13 3e 5c 76 b4 3d d7 f0 d8 3d be 06 c2 3d
       0.14422224 0.08811638 0.105928116 0.09473942

sequential_1/dense_1/MatMul f4 [20, 42]
000000 78 94 41 3d 50 94 1a be b7 7d b8 be 6e e1 c8 bc
       0.04726073 -0.15095639 -0.36033413 -0.024521556
000010 50 39 80 be 4e cc 15 3e a8 4a 28 be 1a 14 c0 3d
       -0.25043726 0.14628717 -0.16434729 0.09378834
000020 12 05 6f be 36 dd 29 bc 05 a0 a4 be 61 89 09 3e
       -0.23341778 -0.010367682 -0.32153335 0.13431312
000030 34 bf 4a be 01 48 30 be b2 09 13 3e 40 71 98 bd
       -0.197995 -0.17214967 0.14359167 -0.07443476
000040 0e 8a e9 bb d3 2d be be da 0b b2 3d eb 26 04 3d
       -0.007127053 -0.37144336 0.08693667 0.032263678
000050 f4 de a7 be f2 1b c4 3d 15 9b e8 3d 15 8b 93 be
       -0.32787287 0.09575643 0.113577046 -0.2881705
000060 65 d0 ba be 69 07 3d be 93 de 81 bd 49 78 67 bd
       -0.36487117 -0.18459858 -0.06341281 -0.056511197
000070 2e c7 b0 3c 61 84 2b 3d a8 5b 4a 3e 67 e4 86 be
       0.021579351 0.041874293 0.19761527 -0.26346132
000080 c7 74 2b be 1c 53 b3 be 19 06 3e bd 74 0f bc bd
       -0.16743766 -0.35024345 -0.046392534 -0.09182635
000090 a1 69 52 3e 62 4a e4 3d 62 cf af be 18 69 4a be
       0.20548107 0.11147 -0.34337908 -0.19766653
0000a0 71 b3 84 be 38 01 2b bc f8 a0 7f 3d a8 a4 bb bd
       -0.25918153 -0.010437302 0.06240937 -0.09162265
0000b0 e0 d7 dc 3d be e8 95 be c1 39 19 be 76 18 83 be
       0.107833624 -0.2927913 -0.14963438 -0.256046
0000c0 15 19 4b 3e 15 ee dd 3d cf 0f 74 be 3b 6f 15 be
       0.19833787 0.10836426 -0.23834155 -0.14593212
0000d0 39 66 c4 3c fe 2d e0 bd 1d 65 9d be 93 11 83 be
       0.023974525 -0.10946272 -0.30741206 -0.25599346
0000e0 31 74 47 be d1 ef 1e bd cd 13 b9 bd 15 6a 1c 3e
       -0.19477917 -0.038802925 -0.0903698 0.15274842
0000f0 f6 80 ee 3d 1d 6a 78 bd 72 4b 3d 3d 99 8c 8a 3e
       0.11645691 -0.060648073 0.04621453 0.27060392
000100 07 4c 94 3d 1b a4 a6 3c eb d3 d1 3d db d0 4a be
       0.072410636 0.020341923 0.10245498 -0.19806235
000110 5e ce b8 bd 4e f4 b4 3e cf f8 a4 be 76 cc eb bd
       -0.090237364 0.3534264 -0.32221076 -0.11513607
000120 be 2b 02 be 81 21 a2 3e 02 c7 a9 be 99 78 f7 3b
       -0.12711999 0.31666186 -0.33159643 0.007552218
000130 88 57 e6 bd 7f c4 84 bb df 4d 44 be 1d cf 91 3e
       -0.11247164 -0.0040517445 -0.1917033 0.28478327
000140 72 c5 bf bd c9 6b 9e 3e df e9 16 3d 7a b0 86 3e
       -0.093638316 0.3094161 0.03684413 0.26306516
000150 10 d6 17 bd fc 46 de 3d 95 3d ef 3d 65 da 65 3e
       -0.03706938 0.10853383 0.11681668 0.22446592
000160 dd 54 f3 bd b5 11 92 be 8f 76 55 be 93 09 98 bc
       -0.11881421 -0.28529134 -0.20846008 -0.018559253
000170 3e 44 b4 be 04 8f 9d be ec e8 7a be 7d 39 bb bc
       -0.35208315 -0.30773175 -0.24502915 -0.022854561
000180 1b fa 4a be 8f 40 92 bd 95 b8 dc be 2d b6 00 3e
       -0.1982197 -0.0714122 -0.43109575 0.12569495
000190 18 11 14 3d 19 65 e6 3a 35 3c 02 bc 83 7c cf be
       0.036149114 0.0017577737 -0.007948925 -0.40524682
0001a0 8e 38 8e be 19 57 b8 be 30 12 8c be 61 1f 80 be
       -0.27777523 -0.3600395 -0.27357626 -0.2502394
0001b0 08 05 7f be 71 4c 69 be 63 76 be be 80 ee 51 be
       -0.24904263 -0.22783066 -0.37199697 -0.20501137
0001c0 00 a4 91 bd e5 f7 35 be 3f 35 4e be 53 63 89 be
       -0.07111359 -0.17770346 -0.201375 -0.2683359
0001d0 de 89 c5 3d a8 2f 88 3d c5 08 76 3e ee 13 bf be
       0.09645437 0.06649715 0.24026783 -0.37319893
0001e0 2d 55 db bd 4e 54 04 3e f4 30 24 be 6a ee 8a be
       -0.10709605 0.12922785 -0.16034299 -0.2713502
0001f0 82 2e 48 bd 66 57 9d bb 1c 3b 64 be 98 61 3a 3e
       -0.04887248 -0.0048016785 -0.22288173 0.18201292
000200 f3 74 d3 bd 50 17 a4 be 44 7f bd 3e cf 32 5b be
       -0.10325041 -0.32049036 0.37011158 -0.214061
000210 5a ab 91 3e da c7 8d be 89 68 92 3e 50 b8 32 be
       0.28451043 -0.27691537 0.2859538 -0.17453122
000220 bc 47 b4 3d aa 13 0e 3e 6f ae a2 3e 0f 76 4e 3e
       0.08802745 0.13874689 0.31773707 0.20162223
000230 fa 9f 91 3e 83 2f 0e be 19 97 ec 3e b1 02 06 be
       0.28442365 -0.13885312 0.46209028 -0.13086964
000240 33 55 2a 3e 8b d1 2d be 59 8f f1 3e 12 6e 8f bc
       0.16634063 -0.16974466 0.47179678 -0.01750854
000250 2e 70 76 bd 9a 55 8d 3e b9 9b ab 3e b7 13 46 be
       -0.060165577 0.2760437 0.33517244 -0.19343458
000260 99 f4 e4 3e a2 74 f2 bd a8 fc e8 3e 79 9c 30 3e
       0.44717863 -0.11838652 0.4550526 0.1724719
000270 32 cd 9b 3d ba b8 ac bc 39 2e a1 bc 22 e7 96 bc
       0.07607497 -0.021084178 -0.019675361 -0.01842076
000280 fb 8e a8 3e 24 29 50 3e 25 3c 05 bd fb 43 23 3b
       0.32921585 0.20328194 -0.03252806 0.0024912346
000290 aa f9 87 3e d7 44 c5 3e a6 d9 f2 3d 02 79 16 3e
       0.26557666 0.38529083 0.118579194 0.14694598
0002a0 e8 dd ae 3d 80 8a a8 bc 57 94 97 3b 75 25 0d 3e
       0.08538419 -0.020573854 0.004625838 0.1378382
0002b0 05 56 80 be 7e b4 b0 3e 78 3a 19 bc 3b 75 50 3e
       -0.25065628 0.34512705 -0.009352319 0.2035722
0002c0 34 1c b7 be 2a bc 3a 3d 6b 9d 96 3d 37 94 fb bd
       -0.35763705 0.045589603 0.07354244 -0.12284129
0002d0 d1 d6 77 3d 50 d4 64 3e 92 7d 51 3d 99 65 9c be
       0.0605076 0.22346616 0.051145144 -0.30546263
0002e0 35 f2 3b be 2b c6 52 be d0 bd e8 3d 17 0c c1 be
       -0.18354113 -0.20583408 0.11364329 -0.37704536
0002f0 f7 f3 9b 3d b1 35 97 be 24 1b 4c be 74 40 2f 3e
       0.07614892 -0.2953315 -0.19932228 0.1711443
000300 ef a0 9b 3e fd 93 95 be cb b6 bc bc 54 6a f5 3c
       0.3039622 -0.2921447 -0.023036381 0.029957928
000310 8d 9f 82 3d 8f 83 d7 be a3 f9 61 3e e1 8d a4 bd
       0.06378088 -0.4209256 0.22067885 -0.08034874
000320 ec 74 31 be ce b7 e1 bd ae 5c 42 bd 4c 82 de 3d
       -0.17329758 -0.11021386 -0.047451667 0.10864696
000330 93 75 78 3c 75 8e 83 be 5f d7 3c 3c 7f 5b 9e be
       0.015164751 -0.25694624 0.011525958 -0.3092918
000340 2b fb ce 3d 72 f1 78 be 87 ef 3e be 80 37 77 bc
       0.101065 -0.24310854 -0.1864606 -0.015088916
000350 b7 47 c9 be fb 18 0f be 1c 54 c7 bd 2e 07 7b bb
       -0.39312527 -0.13974373 -0.097328395 -0.003830384
000360 1f 96 31 be 1a ab 6a bb cb c7 76 bd 8c 3f a0 be
       -0.17342423 -0.003580755 -0.06024913 -0.31298482
000370 3a 46 98 3e f5 53 36 3d 59 d7 36 3e 86 ed 92 be
       0.2974108 0.04451366 0.17855586 -0.2869684
000380 a2 dd 32 3e 6e 0c 98 be 52 6c 79 bd b7 6a d0 3d
       0.17467359 -0.29696983 -0.060894318 0.10176604
000390 bd af a4 bd 8e ef 66 3d e0 da 43 bc 31 91 d6 be
       -0.08041332 0.0563808 -0.011954039 -0.41907647
0003a0 60 54 9f 3e df 52 41 3c b6 37 58 3d b1 64 86 be
       0.3111906 0.011799543 0.052787505 -0.26248696
0003b0 16 a4 38 3d 13 02 c8 be 41 bd c9 3d ff 49 61 3d
       0.04507836 -0.39064083 0.098505504 0.05500221
0003c0 6e df 9b bd fb 26 05 be 96 f8 45 3e f4 0f 61 bd
       -0.07610975 -0.13003151 0.1933311 -0.054946855
0003d0 9d 7e b6 3e 22 0a d0 bd 3c 92 80 3e 16 be 47 3d
       0.35643473 -0.10158183 0.25111568 0.048765264
0003e0 ac 1c 86 3e ea df 91 be 43 04 50 3e 63 71 9c be
       0.2619375 -0.28491145 0.20314126 -0.30555257
0003f0 54 f1 d5 3d f4 aa 3a 3e a5 09 79 3e c8 49 ce bd
       0.1044642 0.18229276 0.24320085 -0.100726664
