model/point_history_classifier/point_history_classifier.tflite (tflite, 6400 bytes, 6 tensors)

arith.constant f4 [3, 10]
-0.8823601 -0.04037771 0.90683514 1.0577036 1.0892245 -0.46149722 0.9009155 1.008647
0.49481234 -0.45321128 0.13676207 1.1967261 -0.9566286 -1.1206845 -0.37364244 0.5137363
0.8396471 0.72821105 -0.8275474 -0.046379354 0.58502287 0.8264825 0.51173174 -0.5502593
-1.0307444 0.53984475 -0.6756532 -1.6388568 0.95548445 0.92387414
00000000: 5ae2 61bf 1963 25bd 5926 683f d562 873f
00000010: b56b 8b3f 5d49 ecbe 66a2 663f 581b 813f
00000020: 0b58 fd3e 4f0b e8be 5b0b 0c3e 522e 993f
00000030: 9de5 74bf 9772 8fbf 104e bfbe 3984 033f
00000040: 1df3 563f 0a6c 3a3f 25da 53bf 47f8 3dbd
00000050: 0fc4 153f 5b94 533f da00 033f cbdd 0cbf
00000060: 6fef 83bf 4433 0a3f 9cf7 2cbf 0fc6 d1bf
00000070: a19a 743f 0483 6c3f

arith.constant1 f4 [10, 24]
-0.46815565 0.50374436 -0.16420925 -0.088629946 0.15861873 0.5118825 0.24314101 0.08923116
0.33136985 0.015324222 -0.24684308 0.32033932 0.107787654 0.4409706 0.053120222 0.36483762
0.7747786 0.34528512 0.04243971 0.17635958 -0.034663804 -0.110720895 0.098654255 0.009415121
0.21594693 0.07222881 0.34356076 0.25244772 -0.16278094 -0.17937297 0.2989536 -0.052080233
0.51728195 0.58978397 0.25856438 -0.11817177 1.0153265 0.060410205 0.06270995 1.012517
0.83647853 0.12298245 0.80466163 0.9770632 -0.26750085 0.49763024 0.522339 0.28112042
0.019996949 0.119592234 0.72987306 0.66384435 0.59163094 0.14497148 0.13819207 -0.046509314
-0.262605 0.1254108 -0.24631429 0.56419116 -0.935112 0.45986506 0.68250567 -0.71312404
-0.43781075 0.3509571 -0.3925278 -0.20231391 -0.056101747 -0.27405888 -0.07792611 0.6588971
-0.06754662 0.28314507 -0.11518426 0.1992153 0.00021853199 0.3497881 0.3783244 0.34191284
-0.7941195 -0.49998766 -0.99349993 0.0795549 -0.89402837 0.5849636 0.42785177 -0.9958715
-0.9588168 0.15360728 -0.17810328 -0.6895307 -0.05974891 -1.0945939 0.30020213 0.25536463
0.21114494 0.33313835 0.093752086 -0.21823859 0.2270179 0.15498795 -0.16853002 -0.09482275
-1.005554 -0.84050804 -1.0500512 0.14705117 -1.0736423 -0.21923977 -0.18149775 -0.6599029
-1.0709836 0.19445188 0.02076124 -0.95624685 -0.8741404 -0.96472704 0.24807376 0.21676545
0.37239304 0.30835176 0.13988934 0.44802883 -0.22150871 -0.08982236 -0.21508421 0.29900852
-0.02754066 0.18211125 0.38863125 -0.44351226 0.6030713 -0.3598399 -0.17813201 0.21615836
0.10078634 0.5439638 0.29007483 0.7171113 0.13374268 0.4363084 0.3097261 0.51333344
0.38947713 -0.21827736 -0.13742445 -0.2561409 -0.10006982 -0.05987 0.17436929 0.009848437
-0.79631996 -1.0713326 -0.4708489 -0.070068456 -0.012929737 -0.06337271 -0.25630492 0.046823427
-0.3543093 0.10578543 0.34919414 -0.22038686 -1.0298946 -0.097389035 0.16090044 0.051751494
0.19616374 0.1744617 -0.23355794 -0.29992062 -0.2381289 -0.10335899 0.19775741 0.4426994
-0.84420127 -0.76106304 -0.30518293 -0.11614901 -0.1703111 -0.07573263 -0.22569793 -0.43163186
-0.4478134 0.32552883 0.489689 -0.6342531 -0.8968916 -0.45948717 0.23488443 -0.11205283
-0.2660423 0.405038 1.1054327 0.57305986 0.53581613 1.0202229 -0.008139086 -0.108457066
0.10373541 0.009976973 0.2603259 0.5001752 0.011840356 0.3305406 0.39543355 0.051772527
-0.07774111 0.23118924 -0.15113135 0.043620564 -0.32377535 -0.16648251 -0.024909614 0.71256375
0.32484052 0.025179116 0.17434223 0.094786495 0.023815462 0.27501208 -0.063721426 -0.27455804
0.23250863 0.44994783 0.32195058 0.21097402 -0.38287 0.22815248 0.39609426 0.48485586
-0.016698003 0.5100683 -0.90120256 -0.26576388 -0.11305311 -0.2395448 -0.06483746 0.2569538
00000000: 19b2 efbe 64f5 003f 7826 28be 9e83 b5bd
00000010: f36c 223e bb0a 033f f5f9 783e d4be b63d
00000020: 4fa9 a93e 7212 7b3c 6fc4 7cbe 8403 a43e
00000030: c6bf dc3d e6c6 e13e 9794 593d ffcb ba3e
00000040: e457 463f 36c9 b03e 43d5 2d3d 9b97 343e
00000050: a2fb 0dbd a3c1 e2bd 3e0b ca3d e141 1a3c
00000060: 3121 5d3e b3ec 933d 32e7 af3e d440 813e
00000070: 0cb0 26be 8cad 37be 7210 993e 1552 55bd
00000080: 976c 043f 15fc 163f 8d62 843e 0a04 f2bd
00000090: 38f6 813f b170 773d 136e 803d 289a 813f
000000a0: 7523 563f 39de fb3d 4efe 4d3f d020 7a3f
000000b0: dff5 88be 64c9 fe3e 02b8 053f 04ef 8f3e
000000c0: a4d0 a33c c6ec f43d f6d8 3a3f b4f1 293f
000000d0: 2075 173f 6773 143e 3982 0d3e 8d80 3ebd
000000e0: 2a74 86be b06b 003e d039 7cbe d56e 103f
000000f0: 8063 6fbf 6f73 eb3e b1b8 2e3f 4c8f 36bf
00000100: bb28 e0be a6b0 b33e 67f9 c8be 612b 4fbe
00000110: f2ca 65bd 7251 8cbe b997 9fbd 7bad 283f
00000120: e255 8abd 64f8 903e bae5 ebbd 18ff 4b3e
00000130: bc25 6539 6d17 b33e bcb3 c13e 330f af3e
00000140: 6a4b 4bbf 62fe ffbe 0356 7ebf aeed a23d
00000150: 0bdf 64bf 2dc0 153f 630f db3e 6ff1 7ebf
00000160: 0575 75bf 3a4b 1d3e b560 36be 1585 30bf
00000170: 46bb 74bd a71b 8cbf 18b4 993e 27bf 823e
00000180: 6136 583e 1c91 aa3e 1801 c03d f079 5fbe
00000190: 6177 683e 29b5 1e3e 2293 2cbe 6e32 c2bd
000001a0: feb5 80bf 892b 57bf 1468 86bf 9594 163e
000001b0: 1c6d 89bf 6480 60be 8cda 39be 65ef 28bf
000001c0: fe15 89bf 651e 473e 7a13 aa3c 98cc 74bf
000001d0: aac7 5fbf 5af8 76bf 0c07 7e3e c3f7 5d3e
000001e0: 4daa be3e 48e0 9d3e 273f 0f3e 0964 e53e
000001f0: 2ed3 62be c9f4 b7bd 093f 5cbe a517 993e
00000200: f39c e1bc 5f7b 3a3e adfa c63e 0a14 e3be
00000210: e162 1a3f ef3c b8be 3d68 36be 9e58 5d3e
00000220: 1269 ce3d 3641 0b3f b084 943e 9b94 373f
00000230: d7f3 083e d163 df3e 6b94 9e3e d269 033f
00000240: 8c69 c73e 1a84 5fbe ffb8 0cbe e624 83be
00000250: 68f1 ccbd 3f3a 75bd dd8d 323e 575b 213c
00000260: a0db 4bbf 6d21 89bf 1b13 f1be 0d80 8fbd
00000270: 3fd7 53bc 8dc9 81bd 663a 83be ecc9 3f3d
00000280: 0768 b5be 08a6 d83d 93c9 b23e 18ad 61be
00000290: 96d3 83bf e773 c7bd 16c3 243e 60f9 533d
000002a0: 26df 483e 16a6 323e d029 6fbe 328f 99be
000002b0: 10d8 73be e1ad d3bd eb80 4a3e 7fa9 e23e
000002c0: 931d 58bf 07d5 42bf f040 9cbe 88df edbd
000002d0: 0866 2ebe b619 9bbd 5c1d 67be dafe dcbe
000002e0: cc47 e5be b7ab a63e 84b8 fa3e 695e 22bf
000002f0: b09a 65bf e741 ebbe 8b85 703e f47b e5bd
00000300: b236 88be 2461 cf3e d27e 8d3f 0db4 123f
00000310: 3f2b 093f aa96 823f cd59 05bc bd1e debd
00000320: 3b73 d43d 7576 233c 7049 853e 7b0b 003f
00000330: 0dfe 413c 9e3c a93e 4476 ca3e 6e0f 543d
00000340: bb36 9fbd dfbc 6c3e 2dc2 1abe 7aab 323d
00000350: e2c5 a5be 647a 2abe 3f0f ccbc 946a 363f
00000360: 7f51 a63e 6f44 ce3c c586 323e 6c1f c23d
00000370: a518 c33c 62ce 8c3e 6180 82bd df92 8cbe
00000380: be16 6e3e 905f e63e b5d6 a43e 9309 583e
00000390: 8907 c4be cea0 693e decc ca3e 073f f83e
000003a0: 40ca 88bc d693 023f 36b5 66bf 3412 88be
000003b0: 6488 e7bd 3b4b 75be 81c9 84bd 738f 833e

arith.constant2 f4 [3]
0.08510831 0.21669488 -0.35818335
00000000: 444d ae3d 43e5 5d3e cf63 b7be

sequential_1/dense_1_2/BiasAdd/ReadVariableOp f4 [10]
-0.24852984 0.04634206 0.2455064 0.20087081 0.35924172 0.008772736 0.528319 0.50892407
0.1514886 -0.09701924
00000000: 9b7e 7ebe 2cd1 3d3d 0866 7b3e 14b1 4d3e
00000010: 88ee b73e 86bb 0f3c ea3f 073f d948 023f
00000020: d41f 1b3e 06b2 c6bd

sequential_1/dense_1/BiasAdd/ReadVariableOp f4 [24]
0.12569076 0.15940571 0.0879469 0.05225717 0.12212881 0.13759297 0.13735738 0.13987492
-0.014166186 -0.006077425 -0.004225834 0.13739039 -0.033412345 0.14460142 0.10405187 -0.0042603933
-0.028248703 0.21396813 0.05445639 -0.012451182 -0.01262791 0.00078536745 0.20863149 0.14184184
00000000: 14b5 003e 403b 233e 811d b43d 9d0b 563d
00000010: ab1e fa3d 2ce5 0c3e 6aa7 0c3e 5f3b 0f3e
00000020: 4a19 68bc 2325 c7bb dd78 8abb 11b0 0c3e
00000030: 62db 08bd 6512 143e 2619 d53d c59a 8bbb
00000040: d369 e7bc 761a 5b3e aa0d 5f3d 0b00 4cbc
00000050: 4be5 4ebc 1ee1 4d3a 7ea3 553e fd3e 113e

sequential_1/dense_1/MatMul f4 [24, 32]
0.15598825 0.2536105 0.0954265 -0.24580826 -0.014177821 0.25569427 0.025269276 0.19893898
0.221404 -0.14390819 -0.096524574 -0.361592 -0.26016325 -0.02273628 0.11851979 -0.47259653
0.17370968 -0.20767425 0.11630928 0.081397526 0.06870102 -0.12729378 -0.037393816 0.2742919
-0.12620983 0.17382875 -0.37187356 0.13054037 0.025672816 0.07159863 -0.24755788 0.1600494
-0.12313777 -0.05976349 0.03487318 0.27625865 -0.018852502 0.010115828 -0.3209355 -0.0034257544
0.0036034293 0.026763598 -0.113956496 -0.15026201 0.08539103 0.08721192 0.009910675 -0.15630536
0.15178679 -0.076064795 0.07744795 -0.18054608 -0.021754226 -0.07615668 0.06845446 0.022138685
0.017828614 -0.07705042 0.19412063 -0.2021245 0.19739012 -0.32677466 -0.17940135 -0.5041866
-0.0057892203 -0.20412585 0.1678859 0.38987544 -0.07253488 0.07939486 -0.27347073 0.23314016
-0.3053533 0.09216688 -0.15276936 0.14276163 -0.11801503 0.21480449 0.18038161 -0.02850101
-0.13207866 0.17585334 -0.115642115 0.057002068 0.06885382 -0.06426602 0.12086105 -0.009893748
-0.0874626 -0.13778074 0.1765993 -0.4231738 -0.029940221 -0.5238373 0.46968064 -0.83690727
-0.07071644 -0.037245274 -0.103031084 0.0032381755 0.0010927612 0.08492741 -0.081863575 0.55544496
0.032742213 0.0739694 -0.22543417 0.12878524 0.13268825 0.14080893 -0.06744053 0.1844935
-0.25579178 0.41057202 -0.11347298 -0.07314083 -0.05692477 -0.009756571 0.046281863 -0.16578548
0.25348994 -0.18873668 0.035888914 -0.44269365 0.037804745 -0.41020632 0.68028206 -0.38019684
-0.24631408 -0.21322253 -0.14225355 0.059813064 0.083685696 -0.028985033 -0.3486434 -0.082726665
0.040369663 -0.035522193 0.03401772 0.1063104 -0.033909276 -0.009665928 -0.071402445 -0.014646432
0.13650967 0.0042532017 -0.16837278 0.02461628 0.013300036 -0.006169502 0.033436727 -0.104444265
0.12956679 -0.1671126 0.30943733 -0.24352092 0.41649932 -0.32394165 0.12297945 -0.40340248
-0.033243597 -0.13719526 -0.17606966 0.059950545 -0.056028508 0.19307457 -0.06706644 0.17191765
-0.30466735 0.038789682 -0.022362301 0.11121849 -0.11089387 0.22445716 -0.09332851 0.15419216
-0.11186052 -0.023908513 -0.07342423 0.16374822 0.13074568 -0.11671213 0.09008116 -0.2064075
0.45538548 -0.1370027 0.06989876 -0.28301352 0.08357186 -0.6088197 0.057166107 -0.84438896
0.19300652 0.25713295 -0.16358607 -0.3227502 0.16341434 0.10716641 0.082903296 -0.31499296
0.22340357 -0.0091472985 -0.0072564394 -0.18649884 0.22761221 -0.092527345 -0.16490182 -0.4418707
0.24691182 -0.10084434 -0.06025597 -0.26558667 0.37738577 -0.21393469 -0.10810717 0.062152207
0.0020063487 -0.037569094 0.1429816 -0.03849077 0.14705566 -0.12577158 -0.03604364 -0.18385868
-0.16748929 0.24886447 -0.029097274 0.12159936 0.04027496 -0.17755221 0.244778 -0.20086285
-0.12836365 0.18419747 0.23284827 -0.2891916 -0.15083796 -0.25325054 0.22307388 -0.26765487
0.29650715 -0.016462838 0.17042369 0.060479365 -0.037823178 -0.2350061 0.32682005 -0.15386824
0.041728605 -0.008767711 0.00096247374 -0.03216755 0.04847738 -0.08505605 -0.42367744 0.08399397
00000000: 62bb 1f3e 3cd9 813e f86e c33d 29b5 7bbe
00000010: 174a 68bc 5cea 823e 8301 cf3c a9b6 4b3e
00000020: bbb7 623e ab5c 13be adae c5bd 9622 b9be
00000030: 1e34 85be 6f41 babc 81ba f23d 2cf8 f1be
00000040: f3e0 313e 8fa8 54be 8f33 ee3d bfb3 a63d
00000050: 1fb3 8c3d 4d59 02be 422a 19bd fd6f 8c3e
00000060: 263d 01be 2a00 323e 3666 bebe 60ac 053e
00000070: cc4f d23c 4da2 923d d07f 7dbe fde3 233e
00000080: a82f fcbd 90ca 74bd 2ed7 0e3d c671 8d3e
00000090: 9070 9abc dcbc 253c a851 a4be 9f82 60bb
000000a0: 8327 6c3b 553f db3c 0662 e9bd 49de 19be
000000b0: 7ee1 ae3d 2a9c b23d 6260 223c 830e 20be
000000c0: ff6d 1b3e dcc7 9bbd 089d 9e3d 12e1 38be
000000d0: eb35 b2bc 09f8 9bbd da31 8c3d 305c b53c
000000e0: 500d 923c 9ccc 9dbd 8fc7 463e baf9 4ebe
000000f0: a320 4a3e 024f a7be fdb4 37be 5f12 01bf
00000100: 80b3 bdbb 5e06 51be 48ea 2b3e c19d c73e
00000110: 2b8d 94bd c699 a23d 5b04 8cbe 4bbc 6e3e
00000120: 4557 9cbe fdc1 bc3d 926f 1cbe 1b30 123e
00000130: ddb1 f1bd b5f5 5b3e f5b5 383e f37a e9bc
00000140: a13f 07be e612 343e c6d5 ecbd 007b 693d
00000150: 3b03 8d3d e79d 83bd 0086 f73d 6319 22bc
00000160: 971f b3bd 6516 0dbe 72d6 343e 3caa d8be
00000170: 3245 f5bc 341a 06bf fb79 f03e 8e3f 56bf
00000180: c8d3 90bd 808e 18bd f601 d3bd 9237 543b
00000190: fb3a 8f3a 6cee ad3d 17a8 a7bd a431 0e3f
000001a0: b31c 063d 457d 973d 37d8 66be 47e0 033e
000001b0: 6edf 073e 3730 103e 431e 8abd ddeb 3c3e
000001c0: 24f7 82be 7f36 d23e 8664 e8bd dcca 95bd
000001d0: f329 69bd 06da 1fbc 0d92 3d3d abc3 29be
000001e0: 6fc9 813e 3044 41be 4100 133d bea8 e2be
000001f0: 26d9 1a3d 9006 d2be f726 2e3f 29a9 c2be
00000200: c239 7cbe 0257 5abe eaaa 11be 8bfe 743d
00000210: 6863 ab3d 0572 edbc 6381 b2be 996c a9bd
00000220: a95a 253d b87f 11bd 2a56 0b3d 44b9 d93d
00000230: 74e4 0abd d75d 1ebc 723b 92bd 97f7 6fbc
00000240: 31c9 0b3e 715e 8b3b ea69 2cbe 15a8 c93c
00000250: 65e8 593c 8929 cabb f3f4 083d e0e6 d5bd
00000260: 28ad 043e 911f 2bbe 926e 9e3e 8c5d 79be
00000270: 663f d53e aedb a5be a6dc fb3d c58a cebe
00000280: 702a 08bd ea7c 0cbe 9b4b 34be b48e 753d
00000290: 267e 65bd 57b5 453e 215a 89bd 2e0b 303e
000002a0: 5cfd 9bbe eee1 1e3d 2531 b7bc 85c6 e33d
000002b0: 531c e3bd 19d8 653e 0523 bfbd 8de4 1d3e
000002c0: 2117 e5bd c9db c3bc 715f 96bd 9dad 273e
000002d0: 32e2 053e c506 efbd 797c b83d 7d5c 53be
000002e0: 4928 e93e 704a 0cbe 1527 8f3d 26e7 90be
000002f0: b927 ab3d 9cdb 1bbf 0227 6a3d e029 58bf
00000300: 80a3 453e eea6 833e 1b83 27be 843f a5be
00000310: 1756 273e 107a db3d 34c9 a93d c246 a1be
00000320: e8c3 643e 8dde 15bc 6dc7 edbb 8df9 3ebe
00000330: 2d13 693e fa7e bdbd 06dc 28be e03c e2be
00000340: 74d6 7c3e 7a87 cebd f7ce 76bd fafa 87be
00000350: b538 c13e b211 5bbe 4b67 ddbd 5093 7e3d
00000360: f27c 033b 0de2 19bd c569 123e 7fa8 1dbd
00000370: c295 163e 44ca 00be 7fa2 13bd 7345 3cbe
00000380: 5082 2bbe 54d6 7e3e 685d eebc 1609 f93d
00000390: 5bf7 243d 3fd0 35be 16a7 7a3e feae 4dbe
000003a0: c371 03be 439e 3c3e c76f 6e3e ec10 94be
000003b0: 4475 1abe 0eaa 81be 7b6d 643e 0f0a 89be
000003c0: c9cf 973e 13dd 86bc 8c83 2e3e 36b9 773d
000003d0: 7aec 1abd 70a5 70be f554 a73e a38f 1dbe
000003e0: 9deb 2a3d 72a6 0fbc 854e 7c3a 1fc2 03bd
000003f0: 3890 463d de31 aebd 40ec d8be 0805 ac3d
